In [41]: model.eval()
Out[41]: 
Sequential(
  (0): Linear(in_features=2, out_features=437, bias=True)
  (1): Sequential(
    (0): ResBlock(
      (shortcut): Linear(in_features=437, out_features=147, bias=True)
      (start_norm): Sequential(
        (0): BatchNorm1d(437, eps=1e-05, momentum=0.1, affine=True, track_running_stats=True)
        (1): ReLU()
      )
      (layers): Sequential(
        (0): Linear(in_features=437, out_features=147, bias=True)
        (1): BatchNorm1d(147, eps=1e-05, momentum=0.1, affine=True, track_running_stats=True)
        (2): ReLU()
        (3): Dropout(p=0.30851922736236553)
        (4): Linear(in_features=147, out_features=147, bias=True)
      )
    )
    (1): ResBlock(
      (layers): Sequential(
        (0): BatchNorm1d(147, eps=1e-05, momentum=0.1, affine=True, track_running_stats=True)
        (1): ReLU()
        (2): Linear(in_features=147, out_features=147, bias=True)
        (3): BatchNorm1d(147, eps=1e-05, momentum=0.1, affine=True, track_running_stats=True)
        (4): ReLU()
        (5): Dropout(p=0.30851922736236553)
        (6): Linear(in_features=147, out_features=147, bias=True)
      )
    )
  )
  (2): Sequential(
    (0): ResBlock(
      (layers): Sequential(
        (0): BatchNorm1d(147, eps=1e-05, momentum=0.1, affine=True, track_running_stats=True)
        (1): ReLU()
        (2): Linear(in_features=147, out_features=147, bias=True)
        (3): BatchNorm1d(147, eps=1e-05, momentum=0.1, affine=True, track_running_stats=True)
        (4): ReLU()
        (5): Dropout(p=0.0)
        (6): Linear(in_features=147, out_features=147, bias=True)
      )
    )
    (1): ResBlock(
      (layers): Sequential(
        (0): BatchNorm1d(147, eps=1e-05, momentum=0.1, affine=True, track_running_stats=True)
        (1): ReLU()
        (2): Linear(in_features=147, out_features=147, bias=True)
        (3): BatchNorm1d(147, eps=1e-05, momentum=0.1, affine=True, track_running_stats=True)
        (4): ReLU()
        (5): Dropout(p=0.0)
        (6): Linear(in_features=147, out_features=147, bias=True)
      )
    )
  )
  (3): BatchNorm1d(147, eps=1e-05, momentum=0.1, affine=True, track_running_stats=True)
  (4): ReLU()
  (5): Linear(in_features=147, out_features=1, bias=True)
)

In [42]: res
Out[42]: 
{'optimized_hyperparameter_config': {'CreateDataLoader:batch_size': 107,
  'Imputation:strategy': 'median',
  'InitializationSelector:initialization_method': 'default',
  'InitializationSelector:initializer:initialize_bias': 'Yes',
  'LearningrateSchedulerSelector:lr_scheduler': 'plateau',
  'LossModuleSelector:loss_module': 'l1_loss',
…
